…
cancer_model.add(Conv2D(filters = 256, kernel_size = (3,3), padding = 'same', activation = 'relu'))
cancer_model.add(MaxPooling2D(pool_size = (2,2)))
cancer_model.add(Dropout(0.2))
​
#Flattening the layers
cancer_model.add(Flatten())
​
#Adding the dense layer
cancer_model.add(Dense(256, activation = 'relu'))
cancer_model.add(Dense(128, activation = 'relu'))
cancer_model.add(Dense(1, activation = 'sigmoid'))
​
cancer_model.summary()
Model: "sequential"
_________________________________________________________________
Layer (type)                 Output Shape              Param #   
=================================================================
conv2d (Conv2D)              (None, 126, 126, 32)      896       
_________________________________________________________________
max_pooling2d (MaxPooling2D) (None, 63, 63, 32)        0         
_________________________________________________________________
conv2d_1 (Conv2D)            (None, 63, 63, 64)        18496     
_________________________________________________________________
max_pooling2d_1 (MaxPooling2 (None, 31, 31, 64)        0         
_________________________________________________________________
conv2d_2 (Conv2D)            (None, 31, 31, 128)       73856     
_________________________________________________________________
max_pooling2d_2 (MaxPooling2 (None, 15, 15, 128)       0         
_________________________________________________________________
dropout (Dropout)            (None, 15, 15, 128)       0         
_________________________________________________________________
conv2d_3 (Conv2D)            (None, 15, 15, 256)       295168    
_________________________________________________________________
max_pooling2d_3 (MaxPooling2 (None, 7, 7, 256)         0         
_________________________________________________________________
dropout_1 (Dropout)          (None, 7, 7, 256)         0         
_________________________________________________________________
flatten (Flatten)            (None, 12544)             0         
_________________________________________________________________
dense (Dense)                (None, 256)               3211520   
_________________________________________________________________
dense_1 (Dense)              (None, 128)               32896     
_________________________________________________________________
dense_2 (Dense)              (None, 1)                 129       
=================================================================
Total params: 3,632,961
Trainable params: 3,632,961
Non-trainable params: 0
_________________________________________________________________
add Codeadd Markdown
#Setting the learning rate to reduce gradually over the training period
lr_schedule = tf.keras.optimizers.schedules.InverseTimeDecay(
  0.001,
  decay_steps=20*50,
…
